------------------------------TRAINING OF MODEL 1------------------------------
You are using the following device: cuda
Batch size is: 2 epochs 5000
--------------------Folder 0-------------------

Cross Entropy Dice Loss
Total parameters count 6488886
Filters: [32, 64, 128, 256, 320],
Kernels: [[1, 3, 3], [1, 3, 3], [1, 3, 3], [1, 3, 3], [1, 3, 3]]
Strides: [[1, 1, 1], [2, 2, 2], [2, 2, 2], [2, 2, 2], [2, 2, 2]]
GateDynUNet(
  (input_block): GateUnetResBlock(
    (conv1): Convolution(
      (conv): Conv3d(1, 32, kernel_size=(1, 3, 3), stride=(1, 1, 1), padding=(0, 1, 1), bias=False)
      (adn): ADN(
        (D): Dropout(p=0.0, inplace=False)
      )
    )
    (conv2): Convolution(
      (conv): Conv3d(32, 32, kernel_size=(1, 3, 3), stride=(1, 1, 1), padding=(0, 1, 1), bias=False)
      (adn): ADN(
        (D): Dropout(p=0.0, inplace=False)
      )
    )
    (lrelu): LeakyReLU(negative_slope=0.01, inplace=True)
    (norm1): InstanceNorm3d(32, eps=1e-05, momentum=0.1, affine=False, track_running_stats=False)
    (norm2): InstanceNorm3d(32, eps=1e-05, momentum=0.1, affine=False, track_running_stats=False)
    (shift): Gsf(
      (conv3D): Conv3d(8, 2, kernel_size=(3, 3, 3), stride=(1, 1, 1), padding=(1, 1, 1), groups=2)
      (tanh): Tanh()
      (bn): InstanceNorm3d(8, eps=1e-05, momentum=0.1, affine=False, track_running_stats=False)
      (relu): LeakyReLU(negative_slope=0.1)
      (channel_conv1): Conv2d(2, 1, kernel_size=(3, 3), stride=(1, 1), padding=(1, 1))
      (channel_conv2): Conv2d(2, 1, kernel_size=(3, 3), stride=(1, 1), padding=(1, 1))
      (sigmoid): Sigmoid()
    )
    (conv3): Convolution(
      (conv): Conv3d(1, 32, kernel_size=(1, 1, 1), stride=(1, 1, 1), bias=False)
      (adn): ADN(
        (D): Dropout(p=0.0, inplace=False)
      )
    )
    (norm3): InstanceNorm3d(32, eps=1e-05, momentum=0.1, affine=False, track_running_stats=False)
  )
  (downsamples): ModuleList(
    (0): GateUnetResBlock(
      (conv1): Convolution(
        (conv): Conv3d(32, 64, kernel_size=(1, 3, 3), stride=(2, 2, 2), padding=(0, 1, 1), bias=False)
        (adn): ADN(
          (D): Dropout(p=0.0, inplace=False)
        )
      )
      (conv2): Convolution(
        (conv): Conv3d(64, 64, kernel_size=(1, 3, 3), stride=(1, 1, 1), padding=(0, 1, 1), bias=False)
        (adn): ADN(
          (D): Dropout(p=0.0, inplace=False)
        )
      )
      (lrelu): LeakyReLU(negative_slope=0.01, inplace=True)
      (norm1): InstanceNorm3d(64, eps=1e-05, momentum=0.1, affine=False, track_running_stats=False)
      (norm2): InstanceNorm3d(64, eps=1e-05, momentum=0.1, affine=False, track_running_stats=False)
      (shift): Gsf(
        (conv3D): Conv3d(16, 2, kernel_size=(3, 3, 3), stride=(1, 1, 1), padding=(1, 1, 1), groups=2)
        (tanh): Tanh()
        (bn): InstanceNorm3d(16, eps=1e-05, momentum=0.1, affine=False, track_running_stats=False)
        (relu): LeakyReLU(negative_slope=0.1)
        (channel_conv1): Conv2d(2, 1, kernel_size=(3, 3), stride=(1, 1), padding=(1, 1))
        (channel_conv2): Conv2d(2, 1, kernel_size=(3, 3), stride=(1, 1), padding=(1, 1))
        (sigmoid): Sigmoid()
      )
      (conv3): Convolution(
        (conv): Conv3d(32, 64, kernel_size=(1, 1, 1), stride=(2, 2, 2), bias=False)
        (adn): ADN(
          (D): Dropout(p=0.0, inplace=False)
        )
      )
      (norm3): InstanceNorm3d(64, eps=1e-05, momentum=0.1, affine=False, track_running_stats=False)
    )
    (1): GateUnetResBlock(
      (conv1): Convolution(
        (conv): Conv3d(64, 128, kernel_size=(1, 3, 3), stride=(2, 2, 2), padding=(0, 1, 1), bias=False)
        (adn): ADN(
          (D): Dropout(p=0.0, inplace=False)
        )
      )
      (conv2): Convolution(
        (conv): Conv3d(128, 128, kernel_size=(1, 3, 3), stride=(1, 1, 1), padding=(0, 1, 1), bias=False)
        (adn): ADN(
          (D): Dropout(p=0.0, inplace=False)
        )
      )
      (lrelu): LeakyReLU(negative_slope=0.01, inplace=True)
      (norm1): InstanceNorm3d(128, eps=1e-05, momentum=0.1, affine=False, track_running_stats=False)
      (norm2): InstanceNorm3d(128, eps=1e-05, momentum=0.1, affine=False, track_running_stats=False)
      (shift): Gsf(
        (conv3D): Conv3d(32, 2, kernel_size=(3, 3, 3), stride=(1, 1, 1), padding=(1, 1, 1), groups=2)
        (tanh): Tanh()
        (bn): InstanceNorm3d(32, eps=1e-05, momentum=0.1, affine=False, track_running_stats=False)
        (relu): LeakyReLU(negative_slope=0.1)
        (channel_conv1): Conv2d(2, 1, kernel_size=(3, 3), stride=(1, 1), padding=(1, 1))
        (channel_conv2): Conv2d(2, 1, kernel_size=(3, 3), stride=(1, 1), padding=(1, 1))
        (sigmoid): Sigmoid()
      )
      (conv3): Convolution(
        (conv): Conv3d(64, 128, kernel_size=(1, 1, 1), stride=(2, 2, 2), bias=False)
        (adn): ADN(
          (D): Dropout(p=0.0, inplace=False)
        )
      )
      (norm3): InstanceNorm3d(128, eps=1e-05, momentum=0.1, affine=False, track_running_stats=False)
    )
    (2): GateUnetResBlock(
      (conv1): Convolution(
        (conv): Conv3d(128, 256, kernel_size=(1, 3, 3), stride=(2, 2, 2), padding=(0, 1, 1), bias=False)
        (adn): ADN(
          (D): Dropout(p=0.0, inplace=False)
        )
      )
      (conv2): Convolution(
        (conv): Conv3d(256, 256, kernel_size=(1, 3, 3), stride=(1, 1, 1), padding=(0, 1, 1), bias=False)
        (adn): ADN(
          (D): Dropout(p=0.0, inplace=False)
        )
      )
      (lrelu): LeakyReLU(negative_slope=0.01, inplace=True)
      (norm1): InstanceNorm3d(256, eps=1e-05, momentum=0.1, affine=False, track_running_stats=False)
      (norm2): InstanceNorm3d(256, eps=1e-05, momentum=0.1, affine=False, track_running_stats=False)
      (shift): Gsf(
        (conv3D): Conv3d(64, 2, kernel_size=(3, 3, 3), stride=(1, 1, 1), padding=(1, 1, 1), groups=2)
        (tanh): Tanh()
        (bn): InstanceNorm3d(64, eps=1e-05, momentum=0.1, affine=False, track_running_stats=False)
        (relu): LeakyReLU(negative_slope=0.1)
        (channel_conv1): Conv2d(2, 1, kernel_size=(3, 3), stride=(1, 1), padding=(1, 1))
        (channel_conv2): Conv2d(2, 1, kernel_size=(3, 3), stride=(1, 1), padding=(1, 1))
        (sigmoid): Sigmoid()
      )
      (conv3): Convolution(
        (conv): Conv3d(128, 256, kernel_size=(1, 1, 1), stride=(2, 2, 2), bias=False)
        (adn): ADN(
          (D): Dropout(p=0.0, inplace=False)
        )
      )
      (norm3): InstanceNorm3d(256, eps=1e-05, momentum=0.1, affine=False, track_running_stats=False)
    )
  )
  (bottleneck): GateUnetResBlock(
    (conv1): Convolution(
      (conv): Conv3d(256, 320, kernel_size=(1, 3, 3), stride=(2, 2, 2), padding=(0, 1, 1), bias=False)
      (adn): ADN(
        (D): Dropout(p=0.0, inplace=False)
      )
    )
    (conv2): Convolution(
      (conv): Conv3d(320, 320, kernel_size=(1, 3, 3), stride=(1, 1, 1), padding=(0, 1, 1), bias=False)
      (adn): ADN(
        (D): Dropout(p=0.0, inplace=False)
      )
    )
    (lrelu): LeakyReLU(negative_slope=0.01, inplace=True)
    (norm1): InstanceNorm3d(320, eps=1e-05, momentum=0.1, affine=False, track_running_stats=False)
    (norm2): InstanceNorm3d(320, eps=1e-05, momentum=0.1, affine=False, track_running_stats=False)
    (shift): Gsf(
      (conv3D): Conv3d(80, 2, kernel_size=(3, 3, 3), stride=(1, 1, 1), padding=(1, 1, 1), groups=2)
      (tanh): Tanh()
      (bn): InstanceNorm3d(80, eps=1e-05, momentum=0.1, affine=False, track_running_stats=False)
      (relu): LeakyReLU(negative_slope=0.1)
      (channel_conv1): Conv2d(2, 1, kernel_size=(3, 3), stride=(1, 1), padding=(1, 1))
      (channel_conv2): Conv2d(2, 1, kernel_size=(3, 3), stride=(1, 1), padding=(1, 1))
      (sigmoid): Sigmoid()
    )
    (conv3): Convolution(
      (conv): Conv3d(256, 320, kernel_size=(1, 1, 1), stride=(2, 2, 2), bias=False)
      (adn): ADN(
        (D): Dropout(p=0.0, inplace=False)
      )
    )
    (norm3): InstanceNorm3d(320, eps=1e-05, momentum=0.1, affine=False, track_running_stats=False)
  )
  (upsamples): ModuleList(
    (0): GateUnetUpBlock(
      (transp_conv): Convolution(
        (conv): ConvTranspose3d(320, 256, kernel_size=(2, 2, 2), stride=(2, 2, 2))
        (adn): ADN(
          (D): Dropout(p=0.0, inplace=False)
        )
      )
      (conv_block): GateUnetResBlock(
        (conv1): Convolution(
          (conv): Conv3d(512, 256, kernel_size=(1, 3, 3), stride=(1, 1, 1), padding=(0, 1, 1), bias=False)
          (adn): ADN(
            (D): Dropout(p=0.0, inplace=False)
          )
        )
        (conv2): Convolution(
          (conv): Conv3d(256, 256, kernel_size=(1, 3, 3), stride=(1, 1, 1), padding=(0, 1, 1), bias=False)
          (adn): ADN(
            (D): Dropout(p=0.0, inplace=False)
          )
        )
        (lrelu): LeakyReLU(negative_slope=0.01, inplace=True)
        (norm1): InstanceNorm3d(256, eps=1e-05, momentum=0.1, affine=False, track_running_stats=False)
        (norm2): InstanceNorm3d(256, eps=1e-05, momentum=0.1, affine=False, track_running_stats=False)
        (shift): Gsf(
          (conv3D): Conv3d(64, 2, kernel_size=(3, 3, 3), stride=(1, 1, 1), padding=(1, 1, 1), groups=2)
          (tanh): Tanh()
          (bn): InstanceNorm3d(64, eps=1e-05, momentum=0.1, affine=False, track_running_stats=False)
          (relu): LeakyReLU(negative_slope=0.1)
          (channel_conv1): Conv2d(2, 1, kernel_size=(3, 3), stride=(1, 1), padding=(1, 1))
          (channel_conv2): Conv2d(2, 1, kernel_size=(3, 3), stride=(1, 1), padding=(1, 1))
          (sigmoid): Sigmoid()
        )
        (conv3): Convolution(
          (conv): Conv3d(512, 256, kernel_size=(1, 1, 1), stride=(1, 1, 1), bias=False)
          (adn): ADN(
            (D): Dropout(p=0.0, inplace=False)
          )
        )
        (norm3): InstanceNorm3d(256, eps=1e-05, momentum=0.1, affine=False, track_running_stats=False)
      )
    )
    (1): GateUnetUpBlock(
      (transp_conv): Convolution(
        (conv): ConvTranspose3d(256, 128, kernel_size=(2, 2, 2), stride=(2, 2, 2))
        (adn): ADN(
          (D): Dropout(p=0.0, inplace=False)
        )
      )
      (conv_block): GateUnetResBlock(
        (conv1): Convolution(
          (conv): Conv3d(256, 128, kernel_size=(1, 3, 3), stride=(1, 1, 1), padding=(0, 1, 1), bias=False)
          (adn): ADN(
            (D): Dropout(p=0.0, inplace=False)
          )
        )
        (conv2): Convolution(
          (conv): Conv3d(128, 128, kernel_size=(1, 3, 3), stride=(1, 1, 1), padding=(0, 1, 1), bias=False)
          (adn): ADN(
            (D): Dropout(p=0.0, inplace=False)
          )
        )
        (lrelu): LeakyReLU(negative_slope=0.01, inplace=True)
        (norm1): InstanceNorm3d(128, eps=1e-05, momentum=0.1, affine=False, track_running_stats=False)
        (norm2): InstanceNorm3d(128, eps=1e-05, momentum=0.1, affine=False, track_running_stats=False)
        (shift): Gsf(
          (conv3D): Conv3d(32, 2, kernel_size=(3, 3, 3), stride=(1, 1, 1), padding=(1, 1, 1), groups=2)
          (tanh): Tanh()
          (bn): InstanceNorm3d(32, eps=1e-05, momentum=0.1, affine=False, track_running_stats=False)
          (relu): LeakyReLU(negative_slope=0.1)
          (channel_conv1): Conv2d(2, 1, kernel_size=(3, 3), stride=(1, 1), padding=(1, 1))
          (channel_conv2): Conv2d(2, 1, kernel_size=(3, 3), stride=(1, 1), padding=(1, 1))
          (sigmoid): Sigmoid()
        )
        (conv3): Convolution(
          (conv): Conv3d(256, 128, kernel_size=(1, 1, 1), stride=(1, 1, 1), bias=False)
          (adn): ADN(
            (D): Dropout(p=0.0, inplace=False)
          )
        )
        (norm3): InstanceNorm3d(128, eps=1e-05, momentum=0.1, affine=False, track_running_stats=False)
      )
    )
    (2): GateUnetUpBlock(
      (transp_conv): Convolution(
        (conv): ConvTranspose3d(128, 64, kernel_size=(2, 2, 2), stride=(2, 2, 2))
        (adn): ADN(
          (D): Dropout(p=0.0, inplace=False)
        )
      )
      (conv_block): GateUnetResBlock(
        (conv1): Convolution(
          (conv): Conv3d(128, 64, kernel_size=(1, 3, 3), stride=(1, 1, 1), padding=(0, 1, 1), bias=False)
          (adn): ADN(
            (D): Dropout(p=0.0, inplace=False)
          )
        )
        (conv2): Convolution(
          (conv): Conv3d(64, 64, kernel_size=(1, 3, 3), stride=(1, 1, 1), padding=(0, 1, 1), bias=False)
          (adn): ADN(
            (D): Dropout(p=0.0, inplace=False)
          )
        )
        (lrelu): LeakyReLU(negative_slope=0.01, inplace=True)
        (norm1): InstanceNorm3d(64, eps=1e-05, momentum=0.1, affine=False, track_running_stats=False)
        (norm2): InstanceNorm3d(64, eps=1e-05, momentum=0.1, affine=False, track_running_stats=False)
        (shift): Gsf(
          (conv3D): Conv3d(16, 2, kernel_size=(3, 3, 3), stride=(1, 1, 1), padding=(1, 1, 1), groups=2)
          (tanh): Tanh()
          (bn): InstanceNorm3d(16, eps=1e-05, momentum=0.1, affine=False, track_running_stats=False)
          (relu): LeakyReLU(negative_slope=0.1)
          (channel_conv1): Conv2d(2, 1, kernel_size=(3, 3), stride=(1, 1), padding=(1, 1))
          (channel_conv2): Conv2d(2, 1, kernel_size=(3, 3), stride=(1, 1), padding=(1, 1))
          (sigmoid): Sigmoid()
        )
        (conv3): Convolution(
          (conv): Conv3d(128, 64, kernel_size=(1, 1, 1), stride=(1, 1, 1), bias=False)
          (adn): ADN(
            (D): Dropout(p=0.0, inplace=False)
          )
        )
        (norm3): InstanceNorm3d(64, eps=1e-05, momentum=0.1, affine=False, track_running_stats=False)
      )
    )
    (3): GateUnetUpBlock(
      (transp_conv): Convolution(
        (conv): ConvTranspose3d(64, 32, kernel_size=(2, 2, 2), stride=(2, 2, 2))
        (adn): ADN(
          (D): Dropout(p=0.0, inplace=False)
        )
      )
      (conv_block): GateUnetResBlock(
        (conv1): Convolution(
          (conv): Conv3d(64, 32, kernel_size=(1, 3, 3), stride=(1, 1, 1), padding=(0, 1, 1), bias=False)
          (adn): ADN(
            (D): Dropout(p=0.0, inplace=False)
          )
        )
        (conv2): Convolution(
          (conv): Conv3d(32, 32, kernel_size=(1, 3, 3), stride=(1, 1, 1), padding=(0, 1, 1), bias=False)
          (adn): ADN(
            (D): Dropout(p=0.0, inplace=False)
          )
        )
        (lrelu): LeakyReLU(negative_slope=0.01, inplace=True)
        (norm1): InstanceNorm3d(32, eps=1e-05, momentum=0.1, affine=False, track_running_stats=False)
        (norm2): InstanceNorm3d(32, eps=1e-05, momentum=0.1, affine=False, track_running_stats=False)
        (conv3): Convolution(
          (conv): Conv3d(64, 32, kernel_size=(1, 1, 1), stride=(1, 1, 1), bias=False)
          (adn): ADN(
            (D): Dropout(p=0.0, inplace=False)
          )
        )
        (norm3): InstanceNorm3d(32, eps=1e-05, momentum=0.1, affine=False, track_running_stats=False)
      )
    )
  )
  (output_block): GateUnetOutBlock(
    (conv1): Convolution(
      (conv): Conv3d(32, 32, kernel_size=(1, 1, 1), stride=(1, 1, 1))
      (adn): ADN(
        (D): Dropout(p=0.0, inplace=False)
      )
    )
    (act): LeakyReLU(negative_slope=0.01)
    (norm): InstanceNorm3d(32, eps=1e-05, momentum=0.1, affine=False, track_running_stats=False)
    (conv): Convolution(
      (conv): Conv3d(32, 14, kernel_size=(1, 1, 1), stride=(1, 1, 1))
      (adn): ADN(
        (D): Dropout(p=0.0, inplace=False)
      )
    )
  )
  (skip_layers): DynUNetSkipLayer(
    (downsample): GateUnetResBlock(
      (conv1): Convolution(
        (conv): Conv3d(1, 32, kernel_size=(1, 3, 3), stride=(1, 1, 1), padding=(0, 1, 1), bias=False)
        (adn): ADN(
          (D): Dropout(p=0.0, inplace=False)
        )
      )
      (conv2): Convolution(
        (conv): Conv3d(32, 32, kernel_size=(1, 3, 3), stride=(1, 1, 1), padding=(0, 1, 1), bias=False)
        (adn): ADN(
          (D): Dropout(p=0.0, inplace=False)
        )
      )
      (lrelu): LeakyReLU(negative_slope=0.01, inplace=True)
      (norm1): InstanceNorm3d(32, eps=1e-05, momentum=0.1, affine=False, track_running_stats=False)
      (norm2): InstanceNorm3d(32, eps=1e-05, momentum=0.1, affine=False, track_running_stats=False)
      (shift): Gsf(
        (conv3D): Conv3d(8, 2, kernel_size=(3, 3, 3), stride=(1, 1, 1), padding=(1, 1, 1), groups=2)
        (tanh): Tanh()
        (bn): InstanceNorm3d(8, eps=1e-05, momentum=0.1, affine=False, track_running_stats=False)
        (relu): LeakyReLU(negative_slope=0.1)
        (channel_conv1): Conv2d(2, 1, kernel_size=(3, 3), stride=(1, 1), padding=(1, 1))
        (channel_conv2): Conv2d(2, 1, kernel_size=(3, 3), stride=(1, 1), padding=(1, 1))
        (sigmoid): Sigmoid()
      )
      (conv3): Convolution(
        (conv): Conv3d(1, 32, kernel_size=(1, 1, 1), stride=(1, 1, 1), bias=False)
        (adn): ADN(
          (D): Dropout(p=0.0, inplace=False)
        )
      )
      (norm3): InstanceNorm3d(32, eps=1e-05, momentum=0.1, affine=False, track_running_stats=False)
    )
    (next_layer): DynUNetSkipLayer(
      (downsample): GateUnetResBlock(
        (conv1): Convolution(
          (conv): Conv3d(32, 64, kernel_size=(1, 3, 3), stride=(2, 2, 2), padding=(0, 1, 1), bias=False)
          (adn): ADN(
            (D): Dropout(p=0.0, inplace=False)
          )
        )
        (conv2): Convolution(
          (conv): Conv3d(64, 64, kernel_size=(1, 3, 3), stride=(1, 1, 1), padding=(0, 1, 1), bias=False)
          (adn): ADN(
            (D): Dropout(p=0.0, inplace=False)
          )
        )
        (lrelu): LeakyReLU(negative_slope=0.01, inplace=True)
        (norm1): InstanceNorm3d(64, eps=1e-05, momentum=0.1, affine=False, track_running_stats=False)
        (norm2): InstanceNorm3d(64, eps=1e-05, momentum=0.1, affine=False, track_running_stats=False)
        (shift): Gsf(
          (conv3D): Conv3d(16, 2, kernel_size=(3, 3, 3), stride=(1, 1, 1), padding=(1, 1, 1), groups=2)
          (tanh): Tanh()
          (bn): InstanceNorm3d(16, eps=1e-05, momentum=0.1, affine=False, track_running_stats=False)
          (relu): LeakyReLU(negative_slope=0.1)
          (channel_conv1): Conv2d(2, 1, kernel_size=(3, 3), stride=(1, 1), padding=(1, 1))
          (channel_conv2): Conv2d(2, 1, kernel_size=(3, 3), stride=(1, 1), padding=(1, 1))
          (sigmoid): Sigmoid()
        )
        (conv3): Convolution(
          (conv): Conv3d(32, 64, kernel_size=(1, 1, 1), stride=(2, 2, 2), bias=False)
          (adn): ADN(
            (D): Dropout(p=0.0, inplace=False)
          )
        )
        (norm3): InstanceNorm3d(64, eps=1e-05, momentum=0.1, affine=False, track_running_stats=False)
      )
      (next_layer): DynUNetSkipLayer(
        (downsample): GateUnetResBlock(
          (conv1): Convolution(
            (conv): Conv3d(64, 128, kernel_size=(1, 3, 3), stride=(2, 2, 2), padding=(0, 1, 1), bias=False)
            (adn): ADN(
              (D): Dropout(p=0.0, inplace=False)
            )
          )
          (conv2): Convolution(
            (conv): Conv3d(128, 128, kernel_size=(1, 3, 3), stride=(1, 1, 1), padding=(0, 1, 1), bias=False)
            (adn): ADN(
              (D): Dropout(p=0.0, inplace=False)
            )
          )
          (lrelu): LeakyReLU(negative_slope=0.01, inplace=True)
          (norm1): InstanceNorm3d(128, eps=1e-05, momentum=0.1, affine=False, track_running_stats=False)
          (norm2): InstanceNorm3d(128, eps=1e-05, momentum=0.1, affine=False, track_running_stats=False)
          (shift): Gsf(
            (conv3D): Conv3d(32, 2, kernel_size=(3, 3, 3), stride=(1, 1, 1), padding=(1, 1, 1), groups=2)
            (tanh): Tanh()
            (bn): InstanceNorm3d(32, eps=1e-05, momentum=0.1, affine=False, track_running_stats=False)
            (relu): LeakyReLU(negative_slope=0.1)
            (channel_conv1): Conv2d(2, 1, kernel_size=(3, 3), stride=(1, 1), padding=(1, 1))
            (channel_conv2): Conv2d(2, 1, kernel_size=(3, 3), stride=(1, 1), padding=(1, 1))
            (sigmoid): Sigmoid()
          )
          (conv3): Convolution(
            (conv): Conv3d(64, 128, kernel_size=(1, 1, 1), stride=(2, 2, 2), bias=False)
            (adn): ADN(
              (D): Dropout(p=0.0, inplace=False)
            )
          )
          (norm3): InstanceNorm3d(128, eps=1e-05, momentum=0.1, affine=False, track_running_stats=False)
        )
        (next_layer): DynUNetSkipLayer(
          (downsample): GateUnetResBlock(
            (conv1): Convolution(
              (conv): Conv3d(128, 256, kernel_size=(1, 3, 3), stride=(2, 2, 2), padding=(0, 1, 1), bias=False)
              (adn): ADN(
                (D): Dropout(p=0.0, inplace=False)
              )
            )
            (conv2): Convolution(
              (conv): Conv3d(256, 256, kernel_size=(1, 3, 3), stride=(1, 1, 1), padding=(0, 1, 1), bias=False)
              (adn): ADN(
                (D): Dropout(p=0.0, inplace=False)
              )
            )
            (lrelu): LeakyReLU(negative_slope=0.01, inplace=True)
            (norm1): InstanceNorm3d(256, eps=1e-05, momentum=0.1, affine=False, track_running_stats=False)
            (norm2): InstanceNorm3d(256, eps=1e-05, momentum=0.1, affine=False, track_running_stats=False)
            (shift): Gsf(
              (conv3D): Conv3d(64, 2, kernel_size=(3, 3, 3), stride=(1, 1, 1), padding=(1, 1, 1), groups=2)
              (tanh): Tanh()
              (bn): InstanceNorm3d(64, eps=1e-05, momentum=0.1, affine=False, track_running_stats=False)
              (relu): LeakyReLU(negative_slope=0.1)
              (channel_conv1): Conv2d(2, 1, kernel_size=(3, 3), stride=(1, 1), padding=(1, 1))
              (channel_conv2): Conv2d(2, 1, kernel_size=(3, 3), stride=(1, 1), padding=(1, 1))
              (sigmoid): Sigmoid()
            )
            (conv3): Convolution(
              (conv): Conv3d(128, 256, kernel_size=(1, 1, 1), stride=(2, 2, 2), bias=False)
              (adn): ADN(
                (D): Dropout(p=0.0, inplace=False)
              )
            )
            (norm3): InstanceNorm3d(256, eps=1e-05, momentum=0.1, affine=False, track_running_stats=False)
          )
          (next_layer): GateUnetResBlock(
            (conv1): Convolution(
              (conv): Conv3d(256, 320, kernel_size=(1, 3, 3), stride=(2, 2, 2), padding=(0, 1, 1), bias=False)
              (adn): ADN(
                (D): Dropout(p=0.0, inplace=False)
              )
            )
            (conv2): Convolution(
              (conv): Conv3d(320, 320, kernel_size=(1, 3, 3), stride=(1, 1, 1), padding=(0, 1, 1), bias=False)
              (adn): ADN(
                (D): Dropout(p=0.0, inplace=False)
              )
            )
            (lrelu): LeakyReLU(negative_slope=0.01, inplace=True)
            (norm1): InstanceNorm3d(320, eps=1e-05, momentum=0.1, affine=False, track_running_stats=False)
            (norm2): InstanceNorm3d(320, eps=1e-05, momentum=0.1, affine=False, track_running_stats=False)
            (shift): Gsf(
              (conv3D): Conv3d(80, 2, kernel_size=(3, 3, 3), stride=(1, 1, 1), padding=(1, 1, 1), groups=2)
              (tanh): Tanh()
              (bn): InstanceNorm3d(80, eps=1e-05, momentum=0.1, affine=False, track_running_stats=False)
              (relu): LeakyReLU(negative_slope=0.1)
              (channel_conv1): Conv2d(2, 1, kernel_size=(3, 3), stride=(1, 1), padding=(1, 1))
              (channel_conv2): Conv2d(2, 1, kernel_size=(3, 3), stride=(1, 1), padding=(1, 1))
              (sigmoid): Sigmoid()
            )
            (conv3): Convolution(
              (conv): Conv3d(256, 320, kernel_size=(1, 1, 1), stride=(2, 2, 2), bias=False)
              (adn): ADN(
                (D): Dropout(p=0.0, inplace=False)
              )
            )
            (norm3): InstanceNorm3d(320, eps=1e-05, momentum=0.1, affine=False, track_running_stats=False)
          )
          (upsample): GateUnetUpBlock(
            (transp_conv): Convolution(
              (conv): ConvTranspose3d(320, 256, kernel_size=(2, 2, 2), stride=(2, 2, 2))
              (adn): ADN(
                (D): Dropout(p=0.0, inplace=False)
              )
            )
            (conv_block): GateUnetResBlock(
              (conv1): Convolution(
                (conv): Conv3d(512, 256, kernel_size=(1, 3, 3), stride=(1, 1, 1), padding=(0, 1, 1), bias=False)
                (adn): ADN(
                  (D): Dropout(p=0.0, inplace=False)
                )
              )
              (conv2): Convolution(
                (conv): Conv3d(256, 256, kernel_size=(1, 3, 3), stride=(1, 1, 1), padding=(0, 1, 1), bias=False)
                (adn): ADN(
                  (D): Dropout(p=0.0, inplace=False)
                )
              )
              (lrelu): LeakyReLU(negative_slope=0.01, inplace=True)
              (norm1): InstanceNorm3d(256, eps=1e-05, momentum=0.1, affine=False, track_running_stats=False)
              (norm2): InstanceNorm3d(256, eps=1e-05, momentum=0.1, affine=False, track_running_stats=False)
              (shift): Gsf(
                (conv3D): Conv3d(64, 2, kernel_size=(3, 3, 3), stride=(1, 1, 1), padding=(1, 1, 1), groups=2)
                (tanh): Tanh()
                (bn): InstanceNorm3d(64, eps=1e-05, momentum=0.1, affine=False, track_running_stats=False)
                (relu): LeakyReLU(negative_slope=0.1)
                (channel_conv1): Conv2d(2, 1, kernel_size=(3, 3), stride=(1, 1), padding=(1, 1))
                (channel_conv2): Conv2d(2, 1, kernel_size=(3, 3), stride=(1, 1), padding=(1, 1))
                (sigmoid): Sigmoid()
              )
              (conv3): Convolution(
                (conv): Conv3d(512, 256, kernel_size=(1, 1, 1), stride=(1, 1, 1), bias=False)
                (adn): ADN(
                  (D): Dropout(p=0.0, inplace=False)
                )
              )
              (norm3): InstanceNorm3d(256, eps=1e-05, momentum=0.1, affine=False, track_running_stats=False)
            )
          )
        )
        (upsample): GateUnetUpBlock(
          (transp_conv): Convolution(
            (conv): ConvTranspose3d(256, 128, kernel_size=(2, 2, 2), stride=(2, 2, 2))
            (adn): ADN(
              (D): Dropout(p=0.0, inplace=False)
            )
          )
          (conv_block): GateUnetResBlock(
            (conv1): Convolution(
              (conv): Conv3d(256, 128, kernel_size=(1, 3, 3), stride=(1, 1, 1), padding=(0, 1, 1), bias=False)
              (adn): ADN(
                (D): Dropout(p=0.0, inplace=False)
              )
            )
            (conv2): Convolution(
              (conv): Conv3d(128, 128, kernel_size=(1, 3, 3), stride=(1, 1, 1), padding=(0, 1, 1), bias=False)
              (adn): ADN(
                (D): Dropout(p=0.0, inplace=False)
              )
            )
            (lrelu): LeakyReLU(negative_slope=0.01, inplace=True)
            (norm1): InstanceNorm3d(128, eps=1e-05, momentum=0.1, affine=False, track_running_stats=False)
            (norm2): InstanceNorm3d(128, eps=1e-05, momentum=0.1, affine=False, track_running_stats=False)
            (shift): Gsf(
              (conv3D): Conv3d(32, 2, kernel_size=(3, 3, 3), stride=(1, 1, 1), padding=(1, 1, 1), groups=2)
              (tanh): Tanh()
              (bn): InstanceNorm3d(32, eps=1e-05, momentum=0.1, affine=False, track_running_stats=False)
              (relu): LeakyReLU(negative_slope=0.1)
              (channel_conv1): Conv2d(2, 1, kernel_size=(3, 3), stride=(1, 1), padding=(1, 1))
              (channel_conv2): Conv2d(2, 1, kernel_size=(3, 3), stride=(1, 1), padding=(1, 1))
              (sigmoid): Sigmoid()
            )
            (conv3): Convolution(
              (conv): Conv3d(256, 128, kernel_size=(1, 1, 1), stride=(1, 1, 1), bias=False)
              (adn): ADN(
                (D): Dropout(p=0.0, inplace=False)
              )
            )
            (norm3): InstanceNorm3d(128, eps=1e-05, momentum=0.1, affine=False, track_running_stats=False)
          )
        )
      )
      (upsample): GateUnetUpBlock(
        (transp_conv): Convolution(
          (conv): ConvTranspose3d(128, 64, kernel_size=(2, 2, 2), stride=(2, 2, 2))
          (adn): ADN(
            (D): Dropout(p=0.0, inplace=False)
          )
        )
        (conv_block): GateUnetResBlock(
          (conv1): Convolution(
            (conv): Conv3d(128, 64, kernel_size=(1, 3, 3), stride=(1, 1, 1), padding=(0, 1, 1), bias=False)
            (adn): ADN(
              (D): Dropout(p=0.0, inplace=False)
            )
          )
          (conv2): Convolution(
            (conv): Conv3d(64, 64, kernel_size=(1, 3, 3), stride=(1, 1, 1), padding=(0, 1, 1), bias=False)
            (adn): ADN(
              (D): Dropout(p=0.0, inplace=False)
            )
          )
          (lrelu): LeakyReLU(negative_slope=0.01, inplace=True)
          (norm1): InstanceNorm3d(64, eps=1e-05, momentum=0.1, affine=False, track_running_stats=False)
          (norm2): InstanceNorm3d(64, eps=1e-05, momentum=0.1, affine=False, track_running_stats=False)
          (shift): Gsf(
            (conv3D): Conv3d(16, 2, kernel_size=(3, 3, 3), stride=(1, 1, 1), padding=(1, 1, 1), groups=2)
            (tanh): Tanh()
            (bn): InstanceNorm3d(16, eps=1e-05, momentum=0.1, affine=False, track_running_stats=False)
            (relu): LeakyReLU(negative_slope=0.1)
            (channel_conv1): Conv2d(2, 1, kernel_size=(3, 3), stride=(1, 1), padding=(1, 1))
            (channel_conv2): Conv2d(2, 1, kernel_size=(3, 3), stride=(1, 1), padding=(1, 1))
            (sigmoid): Sigmoid()
          )
          (conv3): Convolution(
            (conv): Conv3d(128, 64, kernel_size=(1, 1, 1), stride=(1, 1, 1), bias=False)
            (adn): ADN(
              (D): Dropout(p=0.0, inplace=False)
            )
          )
          (norm3): InstanceNorm3d(64, eps=1e-05, momentum=0.1, affine=False, track_running_stats=False)
        )
      )
    )
    (upsample): GateUnetUpBlock(
      (transp_conv): Convolution(
        (conv): ConvTranspose3d(64, 32, kernel_size=(2, 2, 2), stride=(2, 2, 2))
        (adn): ADN(
          (D): Dropout(p=0.0, inplace=False)
        )
      )
      (conv_block): GateUnetResBlock(
        (conv1): Convolution(
          (conv): Conv3d(64, 32, kernel_size=(1, 3, 3), stride=(1, 1, 1), padding=(0, 1, 1), bias=False)
          (adn): ADN(
            (D): Dropout(p=0.0, inplace=False)
          )
        )
        (conv2): Convolution(
          (conv): Conv3d(32, 32, kernel_size=(1, 3, 3), stride=(1, 1, 1), padding=(0, 1, 1), bias=False)
          (adn): ADN(
            (D): Dropout(p=0.0, inplace=False)
          )
        )
        (lrelu): LeakyReLU(negative_slope=0.01, inplace=True)
        (norm1): InstanceNorm3d(32, eps=1e-05, momentum=0.1, affine=False, track_running_stats=False)
        (norm2): InstanceNorm3d(32, eps=1e-05, momentum=0.1, affine=False, track_running_stats=False)
        (conv3): Convolution(
          (conv): Conv3d(64, 32, kernel_size=(1, 1, 1), stride=(1, 1, 1), bias=False)
          (adn): ADN(
            (D): Dropout(p=0.0, inplace=False)
          )
        )
        (norm3): InstanceNorm3d(32, eps=1e-05, momentum=0.1, affine=False, track_running_stats=False)
      )
    )
  )
)
Writing Tensorboard logs to  /data/vision_group/medical/btcv/results_gsf/logs
Final training  0/4999 loss: 3.6639 time 24.14s
Final training  1/4999 loss: 3.2403 time 25.09s
…
